…
2022-09-07 14:27:31 | INFO | fairseq.data.data_utils | loaded 996 examples from: endanger_data.gn-es_quy-es_nah-es_shp-es//data_bin/gn-es_quy-es_nah-es_shp-es/valid.shp-es.shp
2022-09-07 14:27:31 | INFO | fairseq.data.data_utils | loaded 996 examples from: endanger_data.gn-es_quy-es_nah-es_shp-es//data_bin/gn-es_quy-es_nah-es_shp-es/valid.shp-es.es
2022-09-07 14:27:31 | INFO | fairseq.tasks.translation | endanger_data.gn-es_quy-es_nah-es_shp-es//data_bin/gn-es_quy-es_nah-es_shp-es/ valid shp-es 996 examples
2022-09-07 14:27:31 | INFO | fairseq_cli.train | MultilingualTransformerModel(
  (models): ModuleDict(
    (gn-es): FairseqEncoderDecoderModel(
      (encoder): TransformerEncoder(
        (dropout_module): FairseqDropout()
        (embed_tokens): Embedding(176, 512, padding_idx=1)
        (embed_positions): SinusoidalPositionalEmbedding()
        (layers): ModuleList(
          (0): TransformerEncoderLayer(
            (self_attn): MultiheadAttention(
              (dropout_module): FairseqDropout()
              (k_proj): Linear(in_features=512, out_features=512, bias=True)
              (v_proj): Linear(in_features=512, out_features=512, bias=True)
              (q_proj): Linear(in_features=512, out_features=512, bias=True)
              (out_proj): Linear(in_features=512, out_features=512, bias=True)
            )
            (self_attn_layer_norm): LayerNorm((512,), eps=1e-05, elementwise_affine=True)
            (dropout_module): FairseqDropout()
            (activation_dropout_module): FairseqDropout()
            (fc1): Linear(in_features=512, out_features=1024, bias=True)
            (fc2): Linear(in_features=1024, out_features=512, bias=True)
            (final_layer_norm): LayerNorm((512,), eps=1e-05, elementwise_affine=True)
          )
          (1): TransformerEncoderLayer(
            (self_attn): MultiheadAttention(
              (dropout_module): FairseqDropout()
              (k_proj): Linear(in_features=512, out_features=512, bias=True)
              (v_proj): Linear(in_features=512, out_features=512, bias=True)
              (q_proj): Linear(in_features=512, out_features=512, bias=True)
              (out_proj): Linear(in_features=512, out_features=512, bias=True)
            )
            (self_attn_layer_norm): LayerNorm((512,), eps=1e-05, elementwise_affine=True)
            (dropout_module): FairseqDropout()
            (activation_dropout_module): FairseqDropout()
            (fc1): Linear(in_features=512, out_features=1024, bias=True)
            (fc2): Linear(in_features=1024, out_features=512, bias=True)
            (final_layer_norm): LayerNorm((512,), eps=1e-05, elementwise_affine=True)
          )
        )
        (layer_norm): LayerNorm((512,), eps=1e-05, elementwise_affine=True)
      )
      (decoder): TransformerDecoder(
        (dropout_module): FairseqDropout()
        (embed_tokens): Embedding(176, 512, padding_idx=1)
        (embed_positions): SinusoidalPositionalEmbedding()
        (layers): ModuleList(
          (0): TransformerDecoderLayer(
            (dropout_module): FairseqDropout()
            (self_attn): MultiheadAttention(
              (dropout_module): FairseqDropout()
              (k_proj): Linear(in_features=512, out_features=512, bias=True)
              (v_proj): Linear(in_features=512, out_features=512, bias=True)
              (q_proj): Linear(in_features=512, out_features=512, bias=True)
              (out_proj): Linear(in_features=512, out_features=512, bias=True)
            )
            (activation_dropout_module): FairseqDropout()
            (self_attn_layer_norm): LayerNorm((512,), eps=1e-05, elementwise_affine=True)
            (encoder_attn): MultiheadAttention(
              (dropout_module): FairseqDropout()
              (k_proj): Linear(in_features=512, out_features=512, bias=True)
              (v_proj): Linear(in_features=512, out_features=512, bias=True)
              (q_proj): Linear(in_features=512, out_features=512, bias=True)
              (out_proj): Linear(in_features=512, out_features=512, bias=True)
            )
            (encoder_attn_layer_norm): LayerNorm((512,), eps=1e-05, elementwise_affine=True)
            (fc1): Linear(in_features=512, out_features=1024, bias=True)
            (fc2): Linear(in_features=1024, out_features=512, bias=True)
            (final_layer_norm): LayerNorm((512,), eps=1e-05, elementwise_affine=True)
          )
          (1): TransformerDecoderLayer(
            (dropout_module): FairseqDropout()
            (self_attn): MultiheadAttention(
              (dropout_module): FairseqDropout()
              (k_proj): Linear(in_features=512, out_features=512, bias=True)
              (v_proj): Linear(in_features=512, out_features=512, bias=True)
              (q_proj): Linear(in_features=512, out_features=512, bias=True)
              (out_proj): Linear(in_features=512, out_features=512, bias=True)
            )
            (activation_dropout_module): FairseqDropout()
            (self_attn_layer_norm): LayerNorm((512,), eps=1e-05, elementwise_affine=True)
            (encoder_attn): MultiheadAttention(
              (dropout_module): FairseqDropout()
              (k_proj): Linear(in_features=512, out_features=512, bias=True)
              (v_proj): Linear(in_features=512, out_features=512, bias=True)
              (q_proj): Linear(in_features=512, out_features=512, bias=True)
              (out_proj): Linear(in_features=512, out_features=512, bias=True)
            )
            (encoder_attn_layer_norm): LayerNorm((512,), eps=1e-05, elementwise_affine=True)
            (fc1): Linear(in_features=512, out_features=1024, bias=True)
            (fc2): Linear(in_features=1024, out_features=512, bias=True)
            (final_layer_norm): LayerNorm((512,), eps=1e-05, elementwise_affine=True)
          )
        )
        (layer_norm): LayerNorm((512,), eps=1e-05, elementwise_affine=True)
        (output_projection): Linear(in_features=512, out_features=176, bias=False)
      )
    )
    (quy-es): FairseqEncoderDecoderModel(
      (encoder): TransformerEncoder(
        (dropout_module): FairseqDropout()
        (embed_tokens): Embedding(176, 512, padding_idx=1)
        (embed_positions): SinusoidalPositionalEmbedding()
        (layers): ModuleList(
          (0): TransformerEncoderLayer(
            (self_attn): MultiheadAttention(
              (dropout_module): FairseqDropout()
              (k_proj): Linear(in_features=512, out_features=512, bias=True)
              (v_proj): Linear(in_features=512, out_features=512, bias=True)
              (q_proj): Linear(in_features=512, out_features=512, bias=True)
              (out_proj): Linear(in_features=512, out_features=512, bias=True)
            )
            (self_attn_layer_norm): LayerNorm((512,), eps=1e-05, elementwise_affine=True)
            (dropout_module): FairseqDropout()
            (activation_dropout_module): FairseqDropout()
            (fc1): Linear(in_features=512, out_features=1024, bias=True)
            (fc2): Linear(in_features=1024, out_features=512, bias=True)
            (final_layer_norm): LayerNorm((512,), eps=1e-05, elementwise_affine=True)
          )
          (1): TransformerEncoderLayer(
            (self_attn): MultiheadAttention(
              (dropout_module): FairseqDropout()
              (k_proj): Linear(in_features=512, out_features=512, bias=True)
              (v_proj): Linear(in_features=512, out_features=512, bias=True)
              (q_proj): Linear(in_features=512, out_features=512, bias=True)
              (out_proj): Linear(in_features=512, out_features=512, bias=True)
            )
            (self_attn_layer_norm): LayerNorm((512,), eps=1e-05, elementwise_affine=True)
            (dropout_module): FairseqDropout()
            (activation_dropout_module): FairseqDropout()
            (fc1): Linear(in_features=512, out_features=1024, bias=True)
            (fc2): Linear(in_features=1024, out_features=512, bias=True)
            (final_layer_norm): LayerNorm((512,), eps=1e-05, elementwise_affine=True)
          )
        )
        (layer_norm): LayerNorm((512,), eps=1e-05, elementwise_affine=True)
      )
      (decoder): TransformerDecoder(
        (dropout_module): FairseqDropout()
        (embed_tokens): Embedding(176, 512, padding_idx=1)
        (embed_positions): SinusoidalPositionalEmbedding()
        (layers): ModuleList(
          (0): TransformerDecoderLayer(
            (dropout_module): FairseqDropout()
            (self_attn): MultiheadAttention(
              (dropout_module): FairseqDropout()
              (k_proj): Linear(in_features=512, out_features=512, bias=True)
              (v_proj): Linear(in_features=512, out_features=512, bias=True)
              (q_proj): Linear(in_features=512, out_features=512, bias=True)
              (out_proj): Linear(in_features=512, out_features=512, bias=True)
            )
            (activation_dropout_module): FairseqDropout()
            (self_attn_layer_norm): LayerNorm((512,), eps=1e-05, elementwise_affine=True)
            (encoder_attn): MultiheadAttention(
              (dropout_module): FairseqDropout()
              (k_proj): Linear(in_features=512, out_features=512, bias=True)
              (v_proj): Linear(in_features=512, out_features=512, bias=True)
              (q_proj): Linear(in_features=512, out_features=512, bias=True)
              (out_proj): Linear(in_features=512, out_features=512, bias=True)
            )
            (encoder_attn_layer_norm): LayerNorm((512,), eps=1e-05, elementwise_affine=True)
            (fc1): Linear(in_features=512, out_features=1024, bias=True)
            (fc2): Linear(in_features=1024, out_features=512, bias=True)
            (final_layer_norm): LayerNorm((512,), eps=1e-05, elementwise_affine=True)
          )
          (1): TransformerDecoderLayer(
            (dropout_module): FairseqDropout()
            (self_attn): MultiheadAttention(
              (dropout_module): FairseqDropout()
              (k_proj): Linear(in_features=512, out_features=512, bias=True)
              (v_proj): Linear(in_features=512, out_features=512, bias=True)
              (q_proj): Linear(in_features=512, out_features=512, bias=True)
              (out_proj): Linear(in_features=512, out_features=512, bias=True)
            )
            (activation_dropout_module): FairseqDropout()
            (self_attn_layer_norm): LayerNorm((512,), eps=1e-05, elementwise_affine=True)
            (encoder_attn): MultiheadAttention(
              (dropout_module): FairseqDropout()
              (k_proj): Linear(in_features=512, out_features=512, bias=True)
              (v_proj): Linear(in_features=512, out_features=512, bias=True)
              (q_proj): Linear(in_features=512, out_features=512, bias=True)
              (out_proj): Linear(in_features=512, out_features=512, bias=True)
            )
            (encoder_attn_layer_norm): LayerNorm((512,), eps=1e-05, elementwise_affine=True)
            (fc1): Linear(in_features=512, out_features=1024, bias=True)
            (fc2): Linear(in_features=1024, out_features=512, bias=True)
            (final_layer_norm): LayerNorm((512,), eps=1e-05, elementwise_affine=True)
          )
        )
        (layer_norm): LayerNorm((512,), eps=1e-05, elementwise_affine=True)
        (output_projection): Linear(in_features=512, out_features=176, bias=False)
      )
    )
    (nah-es): FairseqEncoderDecoderModel(
      (encoder): TransformerEncoder(
        (dropout_module): FairseqDropout()
        (embed_tokens): Embedding(176, 512, padding_idx=1)
        (embed_positions): SinusoidalPositionalEmbedding()
        (layers): ModuleList(
          (0): TransformerEncoderLayer(
            (self_attn): MultiheadAttention(
              (dropout_module): FairseqDropout()
              (k_proj): Linear(in_features=512, out_features=512, bias=True)
              (v_proj): Linear(in_features=512, out_features=512, bias=True)
              (q_proj): Linear(in_features=512, out_features=512, bias=True)
              (out_proj): Linear(in_features=512, out_features=512, bias=True)
            )
            (self_attn_layer_norm): LayerNorm((512,), eps=1e-05, elementwise_affine=True)
            (dropout_module): FairseqDropout()
            (activation_dropout_module): FairseqDropout()
            (fc1): Linear(in_features=512, out_features=1024, bias=True)
            (fc2): Linear(in_features=1024, out_features=512, bias=True)
            (final_layer_norm): LayerNorm((512,), eps=1e-05, elementwise_affine=True)
          )
          (1): TransformerEncoderLayer(
            (self_attn): MultiheadAttention(
              (dropout_module): FairseqDropout()
              (k_proj): Linear(in_features=512, out_features=512, bias=True)
              (v_proj): Linear(in_features=512, out_features=512, bias=True)
              (q_proj): Linear(in_features=512, out_features=512, bias=True)
              (out_proj): Linear(in_features=512, out_features=512, bias=True)
            )
            (self_attn_layer_norm): LayerNorm((512,), eps=1e-05, elementwise_affine=True)
            (dropout_module): FairseqDropout()
            (activation_dropout_module): FairseqDropout()
            (fc1): Linear(in_features=512, out_features=1024, bias=True)
            (fc2): Linear(in_features=1024, out_features=512, bias=True)
            (final_layer_norm): LayerNorm((512,), eps=1e-05, elementwise_affine=True)
          )
        )
        (layer_norm): LayerNorm((512,), eps=1e-05, elementwise_affine=True)
      )
      (decoder): TransformerDecoder(
        (dropout_module): FairseqDropout()
        (embed_tokens): Embedding(176, 512, padding_idx=1)
        (embed_positions): SinusoidalPositionalEmbedding()
        (layers): ModuleList(
          (0): TransformerDecoderLayer(
            (dropout_module): FairseqDropout()
            (self_attn): MultiheadAttention(
              (dropout_module): FairseqDropout()
              (k_proj): Linear(in_features=512, out_features=512, bias=True)
              (v_proj): Linear(in_features=512, out_features=512, bias=True)
              (q_proj): Linear(in_features=512, out_features=512, bias=True)
              (out_proj): Linear(in_features=512, out_features=512, bias=True)
            )
            (activation_dropout_module): FairseqDropout()
            (self_attn_layer_norm): LayerNorm((512,), eps=1e-05, elementwise_affine=True)
            (encoder_attn): MultiheadAttention(
              (dropout_module): FairseqDropout()
              (k_proj): Linear(in_features=512, out_features=512, bias=True)
              (v_proj): Linear(in_features=512, out_features=512, bias=True)
              (q_proj): Linear(in_features=512, out_features=512, bias=True)
              (out_proj): Linear(in_features=512, out_features=512, bias=True)
            )
            (encoder_attn_layer_norm): LayerNorm((512,), eps=1e-05, elementwise_affine=True)
            (fc1): Linear(in_features=512, out_features=1024, bias=True)
            (fc2): Linear(in_features=1024, out_features=512, bias=True)
            (final_layer_norm): LayerNorm((512,), eps=1e-05, elementwise_affine=True)
          )
          (1): TransformerDecoderLayer(
            (dropout_module): FairseqDropout()
            (self_attn): MultiheadAttention(
              (dropout_module): FairseqDropout()
              (k_proj): Linear(in_features=512, out_features=512, bias=True)
              (v_proj): Linear(in_features=512, out_features=512, bias=True)
              (q_proj): Linear(in_features=512, out_features=512, bias=True)
              (out_proj): Linear(in_features=512, out_features=512, bias=True)
            )
            (activation_dropout_module): FairseqDropout()
            (self_attn_layer_norm): LayerNorm((512,), eps=1e-05, elementwise_affine=True)
            (encoder_attn): MultiheadAttention(
              (dropout_module): FairseqDropout()
              (k_proj): Linear(in_features=512, out_features=512, bias=True)
              (v_proj): Linear(in_features=512, out_features=512, bias=True)
              (q_proj): Linear(in_features=512, out_features=512, bias=True)
              (out_proj): Linear(in_features=512, out_features=512, bias=True)
            )
            (encoder_attn_layer_norm): LayerNorm((512,), eps=1e-05, elementwise_affine=True)
            (fc1): Linear(in_features=512, out_features=1024, bias=True)
            (fc2): Linear(in_features=1024, out_features=512, bias=True)
            (final_layer_norm): LayerNorm((512,), eps=1e-05, elementwise_affine=True)
          )
        )
        (layer_norm): LayerNorm((512,), eps=1e-05, elementwise_affine=True)
        (output_projection): Linear(in_features=512, out_features=176, bias=False)
      )
    )
    (shp-es): FairseqEncoderDecoderModel(
      (encoder): TransformerEncoder(
        (dropout_module): FairseqDropout()
        (embed_tokens): Embedding(176, 512, padding_idx=1)
        (embed_positions): SinusoidalPositionalEmbedding()
        (layers): ModuleList(
          (0): TransformerEncoderLayer(
            (self_attn): MultiheadAttention(
              (dropout_module): FairseqDropout()
              (k_proj): Linear(in_features=512, out_features=512, bias=True)
              (v_proj): Linear(in_features=512, out_features=512, bias=True)
              (q_proj): Linear(in_features=512, out_features=512, bias=True)
              (out_proj): Linear(in_features=512, out_features=512, bias=True)
            )
            (self_attn_layer_norm): LayerNorm((512,), eps=1e-05, elementwise_affine=True)
            (dropout_module): FairseqDropout()
            (activation_dropout_module): FairseqDropout()
            (fc1): Linear(in_features=512, out_features=1024, bias=True)
            (fc2): Linear(in_features=1024, out_features=512, bias=True)
            (final_layer_norm): LayerNorm((512,), eps=1e-05, elementwise_affine=True)
          )
          (1): TransformerEncoderLayer(
            (self_attn): MultiheadAttention(
              (dropout_module): FairseqDropout()
              (k_proj): Linear(in_features=512, out_features=512, bias=True)
              (v_proj): Linear(in_features=512, out_features=512, bias=True)
              (q_proj): Linear(in_features=512, out_features=512, bias=True)
              (out_proj): Linear(in_features=512, out_features=512, bias=True)
            )
            (self_attn_layer_norm): LayerNorm((512,), eps=1e-05, elementwise_affine=True)
            (dropout_module): FairseqDropout()
            (activation_dropout_module): FairseqDropout()
            (fc1): Linear(in_features=512, out_features=1024, bias=True)
            (fc2): Linear(in_features=1024, out_features=512, bias=True)
            (final_layer_norm): LayerNorm((512,), eps=1e-05, elementwise_affine=True)
          )
        )
        (layer_norm): LayerNorm((512,), eps=1e-05, elementwise_affine=True)
      )
      (decoder): TransformerDecoder(
        (dropout_module): FairseqDropout()
        (embed_tokens): Embedding(176, 512, padding_idx=1)
        (embed_positions): SinusoidalPositionalEmbedding()
        (layers): ModuleList(
          (0): TransformerDecoderLayer(
            (dropout_module): FairseqDropout()
            (self_attn): MultiheadAttention(
              (dropout_module): FairseqDropout()
              (k_proj): Linear(in_features=512, out_features=512, bias=True)
              (v_proj): Linear(in_features=512, out_features=512, bias=True)
              (q_proj): Linear(in_features=512, out_features=512, bias=True)
              (out_proj): Linear(in_features=512, out_features=512, bias=True)
            )
            (activation_dropout_module): FairseqDropout()
            (self_attn_layer_norm): LayerNorm((512,), eps=1e-05, elementwise_affine=True)
            (encoder_attn): MultiheadAttention(
              (dropout_module): FairseqDropout()
              (k_proj): Linear(in_features=512, out_features=512, bias=True)
              (v_proj): Linear(in_features=512, out_features=512, bias=True)
              (q_proj): Linear(in_features=512, out_features=512, bias=True)
              (out_proj): Linear(in_features=512, out_features=512, bias=True)
            )
            (encoder_attn_layer_norm): LayerNorm((512,), eps=1e-05, elementwise_affine=True)
            (fc1): Linear(in_features=512, out_features=1024, bias=True)
            (fc2): Linear(in_features=1024, out_features=512, bias=True)
            (final_layer_norm): LayerNorm((512,), eps=1e-05, elementwise_affine=True)
          )
          (1): TransformerDecoderLayer(
            (dropout_module): FairseqDropout()
            (self_attn): MultiheadAttention(
              (dropout_module): FairseqDropout()
              (k_proj): Linear(in_features=512, out_features=512, bias=True)
              (v_proj): Linear(in_features=512, out_features=512, bias=True)
              (q_proj): Linear(in_features=512, out_features=512, bias=True)
              (out_proj): Linear(in_features=512, out_features=512, bias=True)
            )
            (activation_dropout_module): FairseqDropout()
            (self_attn_layer_norm): LayerNorm((512,), eps=1e-05, elementwise_affine=True)
            (encoder_attn): MultiheadAttention(
              (dropout_module): FairseqDropout()
              (k_proj): Linear(in_features=512, out_features=512, bias=True)
              (v_proj): Linear(in_features=512, out_features=512, bias=True)
              (q_proj): Linear(in_features=512, out_features=512, bias=True)
              (out_proj): Linear(in_features=512, out_features=512, bias=True)
            )
            (encoder_attn_layer_norm): LayerNorm((512,), eps=1e-05, elementwise_affine=True)
            (fc1): Linear(in_features=512, out_features=1024, bias=True)
            (fc2): Linear(in_features=1024, out_features=512, bias=True)
            (final_layer_norm): LayerNorm((512,), eps=1e-05, elementwise_affine=True)
          )
        )
        (layer_norm): LayerNorm((512,), eps=1e-05, elementwise_affine=True)
        (output_projection): Linear(in_features=512, out_features=176, bias=False)
      )
    )
  )
)
2022-09-07 14:27:31 | INFO | fairseq_cli.train | model multilingual_transformer_iwslt_de_en, criterion LabelSmoothedCrossEntropyCriterion
2022-09-07 14:27:31 | INFO | fairseq_cli.train | num. model params: 10606595 (num. trained: 10516483)
2022-09-07 14:27:34 | INFO | fairseq.trainer | detected shared parameter: models.gn-es.encoder.embed_scale <- models.quy-es.encoder.embed_scale
…
